…
model.add(Convolution2D(16, (2,2), activation='relu'))
model.add(MaxPooling2D(pool_size=(2, 2)))
# model.add(Dropout(0.3))

model.add(Convolution2D(32, (2,2), activation='relu'))
model.add(MaxPooling2D(pool_size=(2, 2)))
# model.add(Dropout(0.3))

model.add(Flatten())
model.add(Dense(500))
model.add(Dropout(0.5))

model.add(Dense(30))

# Summarize the model
model.summary()
```

    _________________________________________________________________
    Layer (type)                 Output Shape              Param #   
    =================================================================
    conv2d_1 (Conv2D)            (None, 94, 94, 8)         80        
    _________________________________________________________________
    max_pooling2d_1 (MaxPooling2 (None, 47, 47, 8)         0         
    _________________________________________________________________
    conv2d_2 (Conv2D)            (None, 46, 46, 16)        528       
    _________________________________________________________________
    max_pooling2d_2 (MaxPooling2 (None, 23, 23, 16)        0         
    _________________________________________________________________
    conv2d_3 (Conv2D)            (None, 22, 22, 32)        2080      
    _________________________________________________________________
    max_pooling2d_3 (MaxPooling2 (None, 11, 11, 32)        0         
    _________________________________________________________________
    flatten_1 (Flatten)          (None, 3872)              0         
    _________________________________________________________________
    dense_1 (Dense)              (None, 500)               1936500   
    _________________________________________________________________
    dropout_1 (Dropout)          (None, 500)               0         
    _________________________________________________________________
    dense_2 (Dense)              (None, 30)                15030     
    =================================================================
    Total params: 1,954,218
    Trainable params: 1,954,218
    Non-trainable params: 0
    _________________________________________________________________


---
<a id='step6'></a>

## Step 6: Compile and Train the Model

After specifying your architecture, you'll need to compile and train the model to detect facial keypoints'
…
